MIL_1mer-PD_weight_vector.npy (npy, 3488 bytes, 1 tensors)

array f8 [420]
000000 5f eb e4 27 4f d2 a2 bf 1a 86 8f 01 60 07 d9 bf
       -0.03676078187932918 -0.391075135730803
000010 fe 32 67 b9 08 b3 b9 3f b5 2f eb 91 70 3e ae 3f
       0.1003880932468739 0.05907012730821696
000020 36 e7 e6 74 72 ae 8b bf 77 bd 2e 47 57 03 b3 3f
       -0.013516325180592408 0.07426972854476853
000030 40 80 91 1b aa 28 b1 3f 3c eb 18 6a 20 4d c8 bf
       0.06702674077087156 -0.18985371761831427
000040 35 f4 c5 90 8e c5 d6 3f b2 dd f3 8f 7c b6 d6 bf
       0.3558079160500854 -0.3548880964076161
000050 d3 ac 59 77 b4 b9 b6 bf 07 d6 22 53 3f e1 ca 3f
       -0.08877113260102769 0.20999900397661994
000060 71 60 f6 33 68 b7 b4 3f 48 25 87 c2 dc 20 c5 3f
       0.08092356937993529 0.16506537912781938
000070 fc 96 06 7b fb 7f b3 3f f1 ef 60 c5 7c 74 ab 3f
       0.07617160562093866 0.05362310323150144
000080 3c cc ad cf 77 d7 a3 3f f1 c9 69 aa 2e c6 c1 bf
       0.03875326547758859 -0.13886054345091695
000090 70 90 2a 41 a5 d1 c8 3f 78 f3 e3 cd 25 6a ca bf
       0.1938978737063084 -0.20636436990016782
0000a0 e2 3c c5 93 c1 a6 b6 3f 92 a0 65 a8 a9 03 a0 3f
       0.08848199708630802 0.03127794438006605
0000b0 2f ec 39 8a bf 99 bc 3f 62 82 72 3a 59 e0 d9 3f
       0.11172101139702371 0.4043181486868318
0000c0 91 d1 47 9a 17 f9 ca bf 52 e0 b8 72 65 09 bd bf
       -0.21072669060926022 -0.11342462588152216
0000d0 56 67 a6 c7 34 2b c1 3f 84 46 42 49 f4 13 a4 3f
       0.1341310477117143 0.03921473879121343
0000e0 99 33 b7 ad 93 65 c8 bf 74 c7 fa a6 39 cd ba bf
       -0.19059988004883335 -0.10469398810053382
0000f0 c9 47 d4 67 76 0d b3 bf 57 f7 b0 81 43 87 ae bf
       -0.0744241717805202 -0.05962573011537014
000100 b1 df cc 4c ad 0f b6 3f f0 b1 fb ec 92 61 c0 3f
       0.08617671132094419 0.12797771998829388
000110 d6 76 78 1e 7e 65 b6 bf 3b 73 d0 76 66 79 c9 bf
       -0.08748615497503506 -0.19901734162785964
000120 1e 06 fd 5a 75 f0 b9 bf 05 08 a1 dc 69 7d c1 3f
       -0.10132535430332054 0.13663981697942532
000130 5d bf c1 ca b0 e3 d5 3f 95 95 37 fe 63 4e cf bf
       0.3420221309706813 -0.24457979119248976
000140 0b c0 04 86 ff 30 c0 bf e0 c7 21 fd df 5f c4 3f
       -0.12649530452608845 0.15917587146719736
000150 2d 57 b9 11 27 ca b5 3f af b7 30 2d 21 ba cc bf
       0.08511585409845841 -0.22443022448117975
000160 8a ef c9 a0 79 f2 bc bf 67 40 17 7d c0 de cd 3f
       -0.11307487655170526 0.23336034877729903
000170 bc b4 bb 4a 71 8c af bf 3d 45 66 de ed f1 ba bf
       -0.06161836659689743 -0.1052540462462916
000180 1e 37 d2 21 98 f2 ca 3f db 9e 90 c1 19 bc 65 3f
       0.2105283894674636 0.0026531699227411005
000190 17 2f ea 45 9b c4 c0 3f 49 8d 2c f7 97 e2 c4 bf
       0.1309999553089873 -0.16316508835834956
0001a0 d0 fb a3 5e be c4 d0 3f e7 ae ab b8 94 1d bc 3f
       0.2620082782959203 0.10982636936722266
0001b0 50 b5 81 54 3e 26 92 bf 26 c1 8d 1c 86 3f df 3f
       -0.017724012287023527 0.4882521895260815
0001c0 be c9 e7 38 0f 79 c1 bf 89 65 ed e8 4b e0 d7 bf
       -0.13650694159112037 -0.3730649733239138
0001d0 5c 64 34 52 cc 2e c8 bf 2f bd cc 7a ab af c1 bf
       -0.18892816556834446 -0.1381735181434833
0001e0 9a bc 78 79 56 5c b5 bf cc 31 4b ab 3d 38 c6 bf
       -0.08344021287551798 -0.17359133590652076
0001f0 b2 d6 d4 6f b5 08 c0 3f dd 0e 36 6b 68 f0 99 bf
       0.12526576958196284 -0.025331145805025258
000200 2e 64 e6 a3 ff f5 c3 bf 1d 8a 5a e7 a4 b8 db 3f
       -0.15594478133132966 0.4331447848618682
000210 55 0e 70 f2 da 77 d3 bf 08 f6 5f d2 53 d6 c8 3f
       -0.3041903846317145 0.1940407540532052
000220 3c 7c c2 8d d6 00 c8 3f 2b 02 5a 17 40 f7 d8 bf
       0.18752557679997206 -0.3900909641306806
000230 71 74 f8 48 05 d0 c2 bf e5 9c 83 c6 9a e9 bd 3f
       -0.14697328627599718 0.11684577318702656
000240 83 5f c7 3d 01 47 d5 3f 16 27 41 88 5e 93 97 3f
       0.33245879204832124 0.023023106638254985
000250 51 a7 4e 89 bd 53 b8 bf bd ce df 0e fb 44 aa 3f
       -0.09502777673938324 0.05130753094263472
000260 22 7e c1 9a ad 7a b8 bf 0b 06 74 35 dc 7a ca bf
       -0.09562191990107086 -0.2068743954660451
000270 61 5b cc d7 34 23 4d 3f c6 c3 ff 38 27 5e c1 3f
       0.0008892066976809826 0.13568582804830792
000280 4e 08 ed 4c 5f f2 c1 bf 5a fe f8 cc 78 79 c6 3f
       -0.14020911461017466 0.17558202751569035
000290 6a 91 5e ac 4e e1 d3 3f c8 a9 06 4f 36 c0 cf bf
       0.3106266673369392 -0.24805334910099774
0002a0 79 c7 8a 68 95 f5 d0 bf 83 43 f9 d9 44 0a ec 3f
       -0.26498923501195965 0.8762535340593874
0002b0 47 1f a9 79 75 63 c2 bf 8b 05 bc c5 e0 61 b3 3f
       -0.14366024437389965 0.07571225001813368
0002c0 b3 4f 91 13 d3 42 bc 3f fa 93 6c 18 1b 20 b9 bf
       0.11039466121411472 -0.09814614626209553
0002d0 9e 6d ed 4a 28 08 cd bf e9 92 4b b9 41 39 aa bf
       -0.22681144388739666 -0.051218084210438004
0002e0 6b 2d 78 eb 8b ad d7 3f 24 11 3f 28 c5 9b cc bf
       0.36996744151175304 -0.22350372758058612
0002f0 4d 5e 21 f4 19 fa d7 bf 82 07 f9 bc e1 40 c9 bf
       -0.37463997689107914 -0.19729253508745265
000300 4f 4d 7f 4f 7e a2 c2 3f 5d ab 50 2b 8f a6 8d bf
       0.14558390504553606 -0.014477842816707992
000310 02 75 61 a4 b1 76 be bf 32 90 d1 87 63 4f c5 bf
       -0.11899862540436248 -0.16648525363700767
000320 c7 ac 2c e0 47 2a c6 3f 4d cc 0e 79 8a 73 7c 3f
       0.17316530653019965 0.006946125898070821
000330 bb 2d 9b 3a 65 d4 c2 3f 28 f8 d7 a0 55 06 b3 bf
       0.14710679399136758 -0.07431540657850688
000340 73 b7 7c 82 0c 05 bf 3f 5b ca 3b a9 0a df 7e 3f
       0.12117078958246257 0.007536927838133946
000350 0d 89 a3 80 e1 01 bd bf 78 44 73 5c a8 9f cd bf
       -0.11330994978519389 -0.23143486513302824
000360 0e aa 97 68 91 26 ae bf 8e 66 3d 43 b9 f3 d4 bf
       -0.058888000505096114 -0.3273757130278704
000370 44 0a 6b 88 56 67 cf 3f 92 d6 e8 0a b6 21 d1 bf
       0.24534112607041625 -0.26768256249793254
000380 d2 51 f1 5a 89 9b e0 3f 1b c1 25 ea 8c df c2 bf
       0.5189863945220685 -0.14744721825582804
000390 27 2a be a4 0a 73 96 bf 5b 32 c7 42 fa ec cb 3f
       -0.02192322378645364 0.21816948185586935
0003a0 b4 5d 95 b3 cd 58 80 3f 61 27 8b 18 23 3a c2 bf
       0.007981879275276473 -0.1423992032853745
0003b0 bd e1 b6 d3 c5 42 df 3f ff d7 a9 11 ab b4 c7 bf
       0.48845048594696633 -0.18520105707619902
0003c0 1a 97 12 30 12 ac 98 bf a9 4b bf d2 0e 56 d5 bf
       -0.024093898948783644 -0.33337755757127724
0003d0 28 50 5c 77 0e df c7 bf 49 35 34 bb bd 3e d5 bf
       -0.18649464443353847 -0.3319544151462038
0003e0 e8 15 65 78 d4 82 a5 bf dc e5 ce a7 c7 7e b7 3f
       -0.042013778397215706 0.09177825781707533
0003f0 45 96 e0 40 da dc b1 3f 4e 76 1e 92 8c f6 c7 bf
       0.0697761925117329 -0.18721158156124534
000400 4a 64 3e 51 f0 75 c7 3f 22 4b 38 0e 9f ef d3 bf
       0.1832867047021714 -0.3115003241411377
000410 53 c5 57 9a 6f 44 e3 3f 6a 4f 84 34 73 d7 a7 bf
       0.6021039976605301 -0.04656562820505779
000420 ae c2 c0 ad 7e 46 bf bf bb b6 86 c2 0d 14 c6 3f
       -0.12216941587463268 0.17248699186659686
000430 10 8d eb 83 76 25 9c 3f 5b ba 37 8e b5 c8 ab 3f
       0.02748665981461068 0.05426566468292001
000440 33 c9 2b 9d 06 98 c7 3f 34 06 43 7c 37 91 dc 3f
       0.18432696031920556 0.44636332640593257
000450 e3 09 d5 72 49 bb b1 bf 3f 07 4a 3d b9 61 51 bf
       -0.06926402143020698 -0.0010608967760678681
000460 73 1c d5 03 34 10 c3 bf 39 7b 70 5d 73 ed c8 bf
       -0.1489319819176874 -0.19474641859502542
000470 6b 19 7c d4 3e 5d d1 bf 72 98 27 2b 9c f0 d5 bf
       -0.2713162493750107 -0.3428106709892581
000480 62 da 18 d2 a5 80 cf 3f 39 a5 f7 83 b6 56 c5 3f
       0.24611351736685366 0.16670876926154124
000490 2b 75 bf 7e 86 f8 be bf 32 88 70 21 27 dc dc 3f
       -0.12097969622069076 0.450937063842619
0004a0 67 21 c4 07 fe 1d a3 bf eb 11 f6 af db 72 bb bf
       -0.03733819813538979 -0.1072213463394928
0004b0 4a 74 d5 33 a0 17 9e 3f 3a 3f c2 ed ba dd bf bf
       0.029387000240024976 -0.12447708420426987
0004c0 86 a1 74 29 67 48 c7 bf 46 8f 95 c5 c6 b6 cf bf
       -0.18189706348608697 -0.2477653946654021
0004d0 bd 48 f9 7c eb f4 d8 bf aa d4 38 32 02 44 c6 bf
       -0.3899487228819785 -0.17395045711751794
0004e0 4b 34 6c d2 31 10 ca bf 5f b2 37 3f e8 7f f6 3f
       -0.20361922049088074 1.4062273473201896
0004f0 07 93 ea 13 47 ae b2 bf 95 25 43 98 7c 47 9c 3f
       -0.07297176586378039 0.027616450112679287
000500 81 2e 0c ca 67 71 c9 bf 5f 99 a2 07 30 83 d2 3f
       -0.19877335897068707 0.289257056671337
000510 b2 bf 3a 17 76 2c d2 bf 43 2d 0f 9a f3 83 d3 bf
       -0.2839637019014801 -0.30492868466236106
000520 ec 86 23 14 19 0b 62 bf 72 dc e9 f8 a0 d4 ab bf
       -0.0022025575463978566 -0.05435660398955457
000530 1f 2c 50 c3 9b 5e cc bf 77 1c 9d 58 cd 00 e0 3f
       -0.22163722073341405 0.5000979166733391
000540 86 34 98 67 51 65 b2 bf 16 cc f2 9e a4 9e e7 3f
       -0.0718584897915254 0.7381156067334611
000550 c4 94 7d cc 6d 9c b8 3f ed da 28 78 fc 1b d5 bf
       0.09613691561169718 -0.3298331426080228
000560 fb f7 bb a0 31 47 b4 bf 72 91 a8 f3 68 72 d0 bf
       -0.07921133207489099 -0.25698303026935954
000570 f9 14 86 a1 11 3d bb bf 64 d3 66 73 2f af d4 bf
       -0.10640058701945411 -0.32319246549314173
000580 74 c9 60 5d 34 fa c8 bf e4 3a c0 14 fc f4 e3 3f
       -0.19513563689686075 0.6236553578654278
000590 64 35 7b 3a 73 ea 91 bf 99 e8 5d 34 e3 4a ba bf
       -0.017495918697752258 -0.10270519283759184
0005a0 a6 7f d4 46 da 4d b8 bf c5 20 8f 14 25 60 c2 3f
       -0.09493793706178497 0.14355910781728745
0005b0 57 c9 e4 27 f5 d3 f5 3f f4 2c d7 f7 94 ad d7 3f
       1.3642474706981227 0.3699695988004372
0005c0 f9 2f 90 7b 6d 7c ad bf a3 27 6a bb 9f 83 aa bf
       -0.05758993275966868 -0.0517854610707922
0005d0 47 55 68 5b 79 7d d5 3f 6f 8e 9a 5b 55 b6 c9 bf
       0.33578332830923724 -0.20087687466467538
0005e0 11 92 da 96 00 41 cd bf cb 4e 2f dd 61 09 cf bf
       -0.22854621282489565 -0.24247382450140828
0005f0 62 46 87 73 d9 97 8e 3f 33 f4 5a 1f 39 47 d4 3f
       0.014938067281863702 0.316847115154647
000600 5e 98 81 33 a8 ad dc bf 75 8f 77 de 98 4b cd bf
       -0.4480991843214549 -0.22886954176567156
000610 26 fb f5 75 0d 5b d1 bf 1d 01 11 d6 d3 e4 b1 bf
       -0.2711824085198934 -0.06989788032752071
000620 d1 8a b8 d2 82 62 c0 bf 0a 9d 72 7d a9 a6 cf bf
       -0.12800631798844234 -0.24727362275482562
000630 8b cb 3b ef 4b 26 ca bf 3f bd 68 4d ec f9 37 3f
       -0.2042937200672806 0.00036584872342167516
000640 7d 4b 0e 05 69 10 9c bf 2a 6f ac 24 66 4d b3 3f
       -0.027406350072463937 0.07539976497031078
000650 ac 54 83 85 08 49 de bf 01 9c 7e bf 06 3a c3 bf
       -0.4732075980985637 -0.15020832395859432
000660 69 b5 ed 76 64 5a c3 3f 86 f9 d6 1c 0c a2 d4 bf
       0.15119605834062647 -0.3223905831945547
000670 96 5d ed d8 2f 49 ce bf d2 2a 9c 7e 5a aa eb 3f
       -0.2366084870543374 0.8645451042987935
000680 6d a7 74 65 e6 1a ca bf d1 da e7 cf d4 8e e6 3f
       -0.2039459224118291 0.7049354611070503
000690 b1 eb f1 d1 54 4e d5 3f af 5e 3d 7f 30 df c7 bf
       0.3329059648746649 -0.18649870121838805
0006a0 9c 16 db 90 62 17 e0 3f 34 bc bc df c2 9c d4 bf
       0.5028546170439827 -0.3220679459508944
0006b0 81 af 64 cc 7a 94 c6 bf 3e bc 7b 98 02 ed d1 bf
       -0.17640624027387378 -0.280090950879586
0006c0 f1 6a ac 9f 26 ea d9 bf 54 84 d8 d1 1e 1b ca 3f
       -0.4049164351760473 0.20395264860511253
0006d0 cf 3f d4 31 d0 66 c8 bf 57 5a 18 3c 94 cc c5 bf
       -0.19063761170445878 -0.1703057568963284
0006e0 82 52 f0 aa 76 9d ca 3f 71 02 90 13 8e ec c7 3f
       0.20793040606135454 0.1869065852661325
0006f0 af 8a 70 78 c3 1b d0 bf a2 f8 f3 c9 84 60 d4 bf
       -0.2516945530098082 -0.31839103433584104
000700 2c 99 eb 4e 2a 8e dd 3f 21 b8 99 43 83 d3 fc 3f
       0.4618020792680848 1.8016388550418088
000710 d6 22 b5 96 c8 df c8 bf fa fc dc 3a 7f c0 d4 bf
       -0.19432933195846286 -0.3242490839802056
000720 73 04 b2 c5 d2 ce 61 3f cc 6e b3 a7 b2 b0 d5 bf
       0.0021738163609943905 -0.33890978219072276
000730 94 45 36 3e b1 c0 c8 bf 0d 95 18 c7 d3 c2 ae bf
       -0.1933805040139701 -0.06008016400691405
000740 07 ab db c7 eb 1d d9 bf ea 95 b1 5a 1d 34 c2 bf
       -0.392451234029679 -0.14221541336443916
000750 31 c9 6b fe 66 40 bb bf 30 4c 72 32 b2 2f cd bf
       -0.10645145141078129 -0.22801806891638554
000760 f8 dd 95 41 56 6c 9b 3f 94 3e b6 bc 00 c8 c1 bf
       0.026780460122123956 -0.13891610350082273
000770 68 25 87 7b 4b 8b ae bf 1f 1f 16 be 7b e0 b7 bf
       -0.05965648539456475 -0.09326909437924912
000780 c8 c0 10 e0 4f dc e0 3f a0 d4 ac 08 88 1c e3 3f
       0.526893556239906 0.5972328347621847
000790 d6 53 4c 9f 44 72 ce bf 87 81 cb 98 70 a7 d2 bf
       -0.23786218431692302 -0.2914697162759911
0007a0 13 b2 f5 e7 a5 eb bd bf 1e a9 9e a0 e5 b9 d0 3f
       -0.11687695420341297 0.26134625134968015
0007b0 6c 65 c3 1b 9a 99 b9 3f 84 53 5f 3d f8 f9 c7 bf
       0.10000003030599708 -0.18731596943566953
0007c0 22 13 03 90 16 aa d7 bf 06 e1 6e 13 0a b3 c7 bf
       -0.3697563558928768 -0.1851513476265227
0007d0 b9 c4 c6 17 5c 0f da 3f 40 ef 6d 6b af 18 d0 3f
       0.40718748399656196 0.2515066670527979
0007e0 2d 15 23 bd 8b 1e c9 bf b8 09 eb 39 cf 06 bf bf
       -0.19624468550879595 -0.12119765438095598
0007f0 cb ac 2c 08 24 0a d7 bf fa 49 9b 3a 36 a5 d4 3f
       -0.35999394224445486 0.3225837299661688
